…
Id":"59e51bc2-2612-4c5b-b7dc-28712b604103","colab":{"base_uri":"https://localhost:8080/","height":989}},"source":["model.summary()"],"execution_count":null,"outputs":[{"output_type":"stream","text":["Model: \"vgg16\"\n","_________________________________________________________________\n","Layer (type)                 Output Shape              Param #   \n","=================================================================\n","input_2 (InputLayer)         [(None, 224, 224, 3)]     0         \n","_________________________________________________________________\n","block1_conv1 (Conv2D)        (None, 224, 224, 64)      1792      \n","_________________________________________________________________\n","block1_conv2 (Conv2D)        (None, 224, 224, 64)      36928     \n","_________________________________________________________________\n","block1_pool (MaxPooling2D)   (None, 112, 112, 64)      0         \n","_________________________________________________________________\n","block2_conv1 (Conv2D)        (None, 112, 112, 128)     73856     \n","_________________________________________________________________\n","block2_conv2 (Conv2D)        (None, 112, 112, 128)     147584    \n","_________________________________________________________________\n","block2_pool (MaxPooling2D)   (None, 56, 56, 128)       0         \n","_________________________________________________________________\n","block3_conv1 (Conv2D)        (None, 56, 56, 256)       295168    \n","_________________________________________________________________\n","block3_conv2 (Conv2D)        (None, 56, 56, 256)       590080    \n","_________________________________________________________________\n","block3_conv3 (Conv2D)        (None, 56, 56, 256)       590080    \n","_________________________________________________________________\n","block3_pool (MaxPooling2D)   (None, 28, 28, 256)       0         \n","_________________________________________________________________\n","block4_conv1 (Conv2D)        (None, 28, 28, 512)       1180160   \n","_________________________________________________________________\n","block4_conv2 (Conv2D)        (None, 28, 28, 512)       2359808   \n","_________________________________________________________________\n","block4_conv3 (Conv2D)        (None, 28, 28, 512)       2359808   \n","_________________________________________________________________\n","block4_pool (MaxPooling2D)   (None, 14, 14, 512)       0         \n","_________________________________________________________________\n","block5_conv1 (Conv2D)        (None, 14, 14, 512)       2359808   \n","_________________________________________________________________\n","block5_conv2 (Conv2D)        (None, 14, 14, 512)       2359808   \n","_________________________________________________________________\n","block5_conv3 (Conv2D)        (None, 14, 14, 512)       2359808   \n","_________________________________________________________________\n","block5_pool (MaxPooling2D)   (None, 7, 7, 512)         0         \n","_________________________________________________________________\n","flatten (Flatten)            (None, 25088)             0         \n","_________________________________________________________________\n","fc1 (Dense)                  (None, 4096)              102764544 \n","_________________________________________________________________\n","fc2 (Dense)                  (None, 4096)              16781312  \n","_________________________________________________________________\n","predictions (Dense)          (None, 1000)              4097000   \n","=================================================================\n","Total params: 138,357,544\n","Trainable params: 138,357,544\n","Non-trainable params: 0\n","_________________________________________________________________\n"],"name":"stdout"}]},{"cell_type":"code","metadata":{"id":"xyw6d1cwCm_1"},"source":["from tensorflow.keras.utils import plot_model"],"execution_count":null,"outpu
…
